sine_model.tflite (tflite, 2932 bytes, 5 tensors)

dense_4/bias f4 [16]
0.3850364 -0.41425812 0.5942118 0.15362144 0.82572985 0.29208443 0.7398996 0.15160637
-0.0693187 -0.06287031 0.33805573 -0.026105883 0.066800445 0.33452183 0.4228025 -0.30134183
00000000: 7e23 c53e a419 d4be 441e 183f f04e 1d3e
00000010: 0863 533f 178c 953e 0f6a 3d3f b33e 1b3e
00000020: f6f6 8dbd 26c2 80bd a415 ad3e 01dc d5bc
00000030: acce 883d 7246 ab3e 9279 d83e 7a49 9abe

dense_3/bias f4 [16]
0.0 -1.2843581 0.0 -1.0298636 -0.9077763 -0.11577314 0.0 0.103552945
0.0 0.0 -0.12752621 0.0 0.0 -0.48694858 0.61842287 0.6769723
00000000: 0000 0000 d965 a4bf 0000 0000 92d2 83bf
00000010: 0764 68bf 781a edbd 0000 0000 9113 d43d
00000020: 0000 0000 0000 0000 3b96 02be 0000 0000
00000030: 0000 0000 5351 f9be f650 1e3f 0f4e 2d3f

sequential_1/dense_3/MatMul f4 [16, 1]
-0.46687502 0.22959487 -0.44777757 0.30995125 0.2602573 0.13100368 -0.4293911 0.50204647
-0.43944296 -0.15349305 0.3479395 -0.29226655 -0.34577867 0.21928161 -0.18816163 -0.24152496
00000000: 3e0a efbe eb1a 6b3e 1a43 e5be eeb1 9e3e
00000010: 7240 853e d425 063e 26d9 dbbe 1e86 003f
00000020: abfe e0be 482d 1dbe 2025 b23e f6a3 95be
00000030: e709 b1be 5c8b 603e 71ad 40be 5252 77be

sequential_1/dense_4/MatMul f4 [16, 16]
0.371483 -1.6413465 0.2011191 -0.12778409 -0.24542114 -0.027882542 0.27873424 -0.000534892
-0.117640525 0.36245635 -0.010373064 0.018327266 0.27068898 -0.041599475 -2.210375 -3.8486748
0.0004042685 -0.23970751 0.0050828457 0.75657976 -0.2687439 -0.057162818 -0.15797707 0.13699014
-0.11349788 0.27003273 -0.4041589 0.06435171 -0.11916876 -0.18022057 -0.16080442 -0.3026432
-0.17545995 -0.48126724 0.39269188 -0.27102488 0.041772965 0.24406807 -0.18365459 -0.9407272
-0.1924699 0.013252288 -1.8898789 0.2096279 -0.13046136 0.2748314 0.022921162 -0.34043628
0.27256855 -0.8961487 0.06956193 -0.14212239 0.34572285 0.21377377 0.14908484 -0.16063906
-0.17110506 -0.37366265 0.41419467 -0.33750573 0.349189 0.43458307 -0.52901006 -0.4971648
-0.34759903 0.4010935 -0.16141117 -0.574404 -1.2837915 -0.10544469 0.038776815 -0.076575994
0.077831835 -0.13217545 -0.052271076 -0.007830828 0.124674946 -0.22980355 -0.25604853 -0.9359068
-0.41236266 -0.48412576 -0.13964814 -0.3621531 -0.19553246 0.043688003 0.08109602 0.30157325
0.34185585 -0.31294245 -0.112053014 -0.42170304 0.07740143 0.35036698 0.5404021 -1.3456507
0.005173892 1.775773 -0.08528957 -1.7027705 0.68680364 0.0834437 -0.032056004 -0.008909628
-0.38802516 -0.2673893 -0.13810603 -0.07000184 -0.3990732 0.1427992 -0.5343096 0.6296737
-0.3655344 -0.20912018 -0.21477194 -0.071167685 -0.70602244 -1.4902909 0.07463655 -0.18571283
0.0028823018 -0.28700447 -0.29832774 -0.2976409 -0.18323183 -0.2671675 0.36356524 0.27815905
0.08920315 -0.76767504 -0.070479214 -0.11322098 0.09684936 0.0023814274 -0.21828535 0.37710136
0.43175897 0.15141103 -0.3155071 0.4320396 -0.4026205 -0.23337911 -0.5712439 -0.42941037
-0.12207678 0.44678494 0.35311452 0.84261954 0.2625048 -0.16383156 -0.1679568 0.11699509
-0.028476626 0.065425605 0.18678688 0.115558594 -0.4174836 0.16346578 0.35674408 0.6866305
-0.36419323 -0.7802857 -0.06459215 -0.32769534 0.19895402 -0.0795414 -0.37982547 0.20229353
0.35636202 0.084017485 -0.01486228 -0.257698 0.30824128 0.27624297 -0.089165136 -0.8528374
0.13510409 -0.02432029 -0.29495162 -0.22979803 -0.12567675 -0.41394955 -0.26636642 -0.34380978
0.12360808 -0.2653017 -0.0003947869 0.01548183 -0.22496188 -0.2061021 -0.17917173 -0.2268403
0.07498577 -0.66251594 -0.41996306 -0.16441083 -0.3354159 -0.03307619 -0.22178873 0.13532725
0.37004414 -0.3227434 0.20661223 -0.0047120154 0.07220474 0.3441627 -0.7071829 -0.25199628
0.048832744 -0.27377573 0.2934229 -1.2869003 -0.7147659 -0.24090423 0.3744938 -3.340693
0.03250602 0.33864495 -0.20238994 -0.26109177 0.34157816 -0.715197 -0.11551656 0.14385782
-0.33535734 -0.63535905 -0.15557036 -0.16128579 -0.17000455 0.029117627 0.32264212 -0.62330914
0.08589104 0.36426982 0.20935208 -0.16275597 -0.34764466 -0.19221957 -0.80653673 0.6627964
0.071056396 0.63726896 -0.17647767 0.9785665 -0.1859278 0.21841004 -0.3326277 0.024632333
0.35196558 -0.30651772 0.04414841 -0.03505364 0.280103 0.35264036 0.43760833 0.61497355
00000000: 0533 be3e a417 d2bf 2af2 4d3e d5d9 02be
00000010: ae4f 7bbe ee69 e4bc 41b6 8e3e ff37 0cba
00000020: 84ed f0bd e193 b93e c9f3 29bc 1023 963c
00000030: bf97 8a3e 3664 2abd c976 0dc0 b050 76c0
00000040: 00f4 d339 e375 75be 008e a63b 36af 413f
00000050: cd98 89be 8f23 6abd bec4 21be 2547 0c3e
00000060: 9471 e8bd bb41 8a3e eaed cebe d4ca 833d
00000070: c00e f4bd be8b 38be eaa9 24be 0df4 9abe
00000080: c6ab 33be a968 f6be e90e c93e c6c3 8abe
00000090: 211a 2b3d fbec 793e f30f 3cbe 7fd3 70bf
000000a0: d416 45be 2020 593c 8de7 f1bf b2a8 563e
000000b0: aa97 05be b4b6 8c3e 29c5 bb3c aa4d aebe
000000c0: 1b8e 8b3e 006a 65bf 7c76 8e3d 8888 11be
000000d0: 9602 b13e 83e7 5a3e b2a9 183e 917e 24be
000000e0: 2a36 2fbe b650 bfbe 5311 d43e 8dcd acbe
000000f0: e7c8 b23e ac81 de3e 346d 07bf 628c febe
00000100: 80f8 b1be 215c cd3e f848 25be 240c 13bf
00000110: 4853 a4bf 63f3 d7bd 70d4 1e3d e0d3 9cbd
00000120: 4c66 9f3d 0059 07be 321a 56bd e04c 00bc
00000130: 9455 ff3d 9f51 6bbe cb18 83be 9797 6fbf
00000140: 3321 d3be 55df f7be ecff 0ebe 226c b9be
00000150: a939 48be 31f2 323d ac15 a63d cf67 9a3e
00000160: bb07 af3e fe39 a0be 0d7c e5bd 76e9 d7be
00000170: a484 9e3d 4d63 b33e cb57 0a3f 483e acbf
00000180: c089 a93b 884c e33f 4cac aebd 62f4 d9bf
00000190: 5dd2 2f3f 88e4 aa3d 284d 03bd b0f9 11bc
000001a0: 3cab c6be 40e7 88be ab6b 0dbe 205d 8fbd
000001b0: 5353 ccbe f439 123e 84c8 08bf 4c32 213f
000001c0: 5327 bbbe 9a23 56be 2ded 5bbe 5dc0 91bd
000001d0: e3bd 34bf dac1 bebf 0cdb 983d 812b 3ebe
000001e0: 00e5 3c3b 40f2 92be 6abe 98be 6364 98be
000001f0: 20a1 3bbe 2eca 88be 3925 ba3e dd6a 8e3e
00000200: 24b0 b63d 5a86 44bf 6857 90bd 67e0 e7bd
00000210: f558 c63d b911 1c3b 3286 5fbe 6e13 c13e
00000220: 830f dd3e 7e0b 1b3e 268a a1be 4b34 dd3e
00000230: 4624 cebe effa 6ebe 0a3d 12bf addb dbbe
00000240: 6403 fabd ffc0 e43e 6dcb b43e eab5 573f
00000250: 0767 863e 76c3 27be defc 2bbe 1f9b ef3d
00000260: d047 e9bc dcfd 853d 0f45 3f3e fca9 ec3d
00000270: 69c0 d5be 9363 273e 29a7 b63e 04c7 2f3f
00000280: 8977 babe cec0 47bf e448 84bd afc7 a7be
00000290: 9aba 4b3e 9ae6 a2bd 7c78 c2be 0926 4f3e
000002a0: 1575 b63e 5c11 ac3d ec80 73bc fef0 83be
000002b0: cdd1 9d3e b86f 8d3e 369c b6bd 8d53 5abf
000002c0: ba58 0a3e 583b c7bc e603 97be 2d50 6bbe
000002d0: 68b1 00be 32f1 d3be 2e61 88be d607 b0be
000002e0: 3c26 fd3d a0d5 87be 67fb ceb9 80a7 7d3c
000002f0: 685c 66be 6e0c 53be cb78 37be d348 68be
00000300: 2492 993d a59a 29bf 6605 d7be 505b 28be
00000310: a2bb abbe e67a 07bd 961c 63be 3a93 0a3e
00000320: 6d76 bd3e 9f3e a5be 2892 533e 4067 9abb
00000330: 14e0 933d 1836 b03e f009 35bf a805 81be
00000340: d804 483d 552c 8cbe 873b 963e 26b9 a4bf
00000350: e6fa 36bf 99af 76be a7bd bf3e eacd 55c0
00000360: 0825 053d df62 ad3e 4f3f 4fbe d2ad 85be
00000370: 55e3 ae3e 2717 37bf f293 ecbd 774f 133e
00000380: f5b3 abbe e4a6 22bf d64d 1fbe 1a28 25be
00000390: ac15 2ebe 1788 ee3c 5931 a53e 3091 1fbf
000003a0: a4e7 af3d 9381 ba3e 6460 563e 80a9 26be
000003b0: 7bfe b1be 35d5 44be 3179 4ebf 06ad 293f
000003c0: 0486 913d 0f24 233f 90b6 34be 5683 7a3f
000003d0: db63 3ebe e2a6 5f3e 2e4e aabe bfc9 c93c
000003e0: d534 b43e e4ef 9cbe f7d4 343d 6894 0fbd
000003f0: a969 8f3e 478d b43e 330e e03e e86e 1d3f

sequential_1/dense_5/MatMul f4 [1, 16]
-0.7602692 0.9901209 -1.0090383 -0.3925083 1.5066512 -0.27817872 0.9490862 -0.9519652
-0.9922359 0.4223373 -0.14646843 0.33759657 -0.5590453 1.4568881 -0.95138717 0.6205857
00000000: 01a1 42bf 9078 7d3f 2b28 81bf d9f6 c8be
00000010: f2d9 c03f 716d 8ebe 50f7 723f feb3 73bf
00000020: 2c03 7ebf 983c d83e d2fb 15be 75d9 ac3e
00000030: 981d 0fbf 4f7b ba3f 1c8e 73bf b4de 1e3f
