sine_model_quantized.tflite (tflite, 2752 bytes, 3 tensors)

sequential_1/dense_3/MatMul i1 [16, 1] scale=0.0039531216 zero_point=0
-0.46646833 0.22928105 -0.44670275 0.30834347 0.26090604 0.13045302 -0.43089026 0.50204647
-0.4387965 -0.15417174 0.3478747 -0.292531 -0.34392157 0.21742168 -0.18974984 -0.24114043
00000000: 8a3a 8f4e 4221 937f 91d9 58b6 a937 d0c3

sequential_1/dense_4/MatMul i1 [16, 16] scale=0.030304525 zero_point=0
0.36365432 -1.6364443 0.21213168 -0.1212181 -0.2424362 -0.030304525 0.27274072 0.0
-0.1212181 0.36365432 0.0 0.030304525 0.27274072 -0.030304525 -2.2122304 -3.8486748
0.0 -0.2424362 0.0 0.7576131 -0.27274072 -0.06060905 -0.15152262 0.15152262
-0.1212181 0.27274072 -0.39395884 0.06060905 -0.1212181 -0.18182716 -0.15152262 -0.30304524
-0.18182716 -0.4848724 0.39395884 -0.27274072 0.030304525 0.2424362 -0.18182716 -0.93944025
-0.18182716 0.0 -1.8788805 0.21213168 -0.1212181 0.27274072 0.030304525 -0.33334976
0.27274072 -0.90913576 0.06060905 -0.15152262 0.33334976 0.21213168 0.15152262 -0.15152262
-0.18182716 -0.36365432 0.42426336 -0.33334976 0.36365432 0.42426336 -0.51517695 -0.4848724
-0.33334976 0.39395884 -0.15152262 -0.575786 -1.2727901 -0.09091358 0.030304525 -0.09091358
0.09091358 -0.1212181 -0.06060905 0.0 0.1212181 -0.2424362 -0.2424362 -0.93944025
-0.42426336 -0.4848724 -0.15152262 -0.36365432 -0.18182716 0.030304525 0.09091358 0.30304524
0.33334976 -0.30304524 -0.1212181 -0.42426336 0.09091358 0.36365432 0.54548144 -1.333399
0.0 1.787967 -0.09091358 -1.6970534 0.6970041 0.09091358 -0.030304525 0.0
-0.39395884 -0.27274072 -0.15152262 -0.06060905 -0.39395884 0.15152262 -0.54548144 0.63639504
-0.36365432 -0.21213168 -0.21213168 -0.06060905 -0.6970041 -1.4849217 0.06060905 -0.18182716
0.0 -0.27274072 -0.30304524 -0.30304524 -0.18182716 -0.27274072 0.36365432 0.27274072
0.09091358 -0.7576131 -0.06060905 -0.1212181 0.09091358 0.0 -0.21213168 0.36365432
0.42426336 0.15152262 -0.30304524 0.42426336 -0.39395884 -0.2424362 -0.575786 -0.42426336
-0.1212181 0.45456788 0.36365432 0.8485267 0.27274072 -0.15152262 -0.18182716 0.1212181
-0.030304525 0.06060905 0.18182716 0.1212181 -0.42426336 0.15152262 0.36365432 0.6970041
-0.36365432 -0.7879177 -0.06060905 -0.33334976 0.21213168 -0.09091358 -0.39395884 0.21213168
0.36365432 0.09091358 0.0 -0.27274072 0.30304524 0.27274072 -0.09091358 -0.8485267
0.1212181 -0.030304525 -0.30304524 -0.2424362 -0.1212181 -0.42426336 -0.27274072 -0.33334976
0.1212181 -0.27274072 0.0 0.030304525 -0.21213168 -0.21213168 -0.18182716 -0.21213168
0.06060905 -0.6666995 -0.42426336 -0.15152262 -0.33334976 -0.030304525 -0.21213168 0.1212181
0.36365432 -0.33334976 0.21213168 0.0 0.06060905 0.33334976 -0.6970041 -0.2424362
0.06060905 -0.27274072 0.30304524 -1.2727901 -0.72730863 -0.2424362 0.36365432 -3.3334978
0.030304525 0.33334976 -0.21213168 -0.27274072 0.33334976 -0.72730863 -0.1212181 0.15152262
-0.33334976 -0.63639504 -0.15152262 -0.15152262 -0.18182716 0.030304525 0.33334976 -0.63639504
0.09091358 0.36365432 0.21213168 -0.15152262 -0.33334976 -0.18182716 -0.81822217 0.6666995
0.06060905 0.63639504 -0.18182716 0.9697448 -0.18182716 0.21213168 -0.33334976 0.030304525
0.36365432 -0.30304524 0.030304525 -0.030304525 0.27274072 0.36365432 0.42426336 0.6060905
00000000: 0cca 07fc f8ff 0900 fc0c 0001 09ff b781
00000010: 00f8 0019 f7fe fb05 fc09 f302 fcfa fbf6
00000020: faf0 0df7 0108 fae1 fa00 c207 fc09 01f5
00000030: 09e2 02fb 0b07 05fb faf4 0ef5 0c0e eff0
00000040: f50d fbed d6fd 01fd 03fc fe00 04f8 f8e1
00000050: f2f0 fbf4 fa01 030a 0bf6 fcf2 030c 12d4
00000060: 003b fdc8 1703 ff00 f3f7 fbfe f305 ee15
00000070: f4f9 f9fe e9cf 02fa 00f7 f6f6 faf7 0c09
00000080: 03e7 fefc 0300 f90c 0e05 f60e f3f8 edf2
00000090: fc0f 0c1c 09fb fa04 ff02 0604 f205 0c17
000000a0: f4e6 fef5 07fd f307 0c03 00f7 0a09 fde4
000000b0: 04ff f6f8 fcf2 f7f5 04f7 0001 f9f9 faf9
000000c0: 02ea f2fb f5ff f904 0cf5 0700 020b e9f8
000000d0: 02f7 0ad6 e8f8 0c92 010b f9f7 0be8 fc05
000000e0: f5eb fbfb fa01 0beb 030c 07fb f5fa e516
000000f0: 0215 fa20 fa07 f501 0cf6 01ff 090c 0e14

sequential_1/dense_5/MatMul i1 [1, 16] scale=0.011863395 zero_point=0
-0.75925726 0.98466176 -1.0083885 -0.391492 1.5066512 -0.27285808 0.9490716 -0.9490716
-0.99652517 0.4270822 -0.14236073 0.33217505 -0.5575796 1.4591975 -0.9490716 0.6168965
00000000: c053 abdf 7fe9 50b0 ac24 f41c d17b b034
